weight.npy (npy, 928 bytes, 1 tensors)

array f8 [100, 1]
0	0x403556163ec1b25c	21.336276933945882
1	0xbfd2063c2d2cbd68	-0.28163055812452464
2	0x3fbb3a96cf8e816e	0.10636274878789262
3	0x3fba76daa0ddd471	0.10337606837659209
4	0x3fbc50356ccd556c	0.1105988875036325
5	0xbfafda1e98fa4ee9	-0.06221099488644006
6	0xbfaaeafaf77d3f03	-0.052574007712449265
7	0xbfc2839a582fbe14	-0.1446412020300022
8	0x3fc33398dee4c3a6	0.15001212008931225
9	0x3fe0d339aa430064	0.5257843327926932
10	0x3fb2779eaf5f324d	0.07213775426425535
11	0xbfa2967484496b1e	-0.03630413164929379
12	0x3faf07285cfb181a	0.060601483679008264
13	0xbfc8ab9a58302231	-0.19273690515571354
14	0x3fc46fc4095f06c1	0.15966082055643052
15	0xbfa155ccebd344e4	-0.033857730662598035
16	0xbfc43b931e164331	-0.15806807488527277
17	0x3fb6fecdc7d7bd82	0.08982549790356667
18	0x3fd99ccbffc4e12b	0.4001951215500578
19	0xbfd790b2d2f8392d	-0.368206697487852
20	0x3fd3627814cb449e	0.3028850749079285
21	0xbfd12c40a75f22b1	-0.26832596154103344
22	0x3fd024ec8fb8e6ea	0.2522536662614657
23	0x3fd23e5bb6e9e0c3	0.28505604612974994
24	0xbfde1de95350cf59	-0.47057564865393925
25	0x3f7d3b13563f8a2f	0.0071364169452601675
26	0x3fc5dcab2478ad16	0.1707967689593281
27	0x3fb19ba1dcc6c765	0.06878101005602628
28	0x3fcbac86d6addedd	0.216202597450084
29	0xbfdf4a9369a193c6	-0.48892674747031284
30	0xbfe09cc05fd7eb62	-0.519134700006685
31	0xbfd1d2359bfe2ff6	-0.27845516427691963
32	0x3fa71e3ab52248a8	0.04515250645739971
33	0x3fd730c945e7b60b	0.36235267473861715
34	0xbfdab13f6a018576	-0.4170683417524609
35	0xbff07b0999ecb4f8	-1.0300384533578022
36	0x3ffdce0680f6d3c1	1.8627991712248646
37	0x3fca4e9a7a8cba25	0.20552378639099902
38	0xbfb5739d26994909	-0.08379537765839386
39	0x3fe576000d4924ac	0.6706543216215741
40	0x3fb60fe562bd4cb2	0.08618005428916112
41	0xbfc0146721cbb2ec	-0.12562264585667238
42	0xbfdc9ad9779a1244	-0.4469512622820597
43	0x3fb6a173c50c5117	0.0884010654520505
44	0x3fe8d2caaede5a6c	0.7757314124490455
45	0xbfc648cb4010ddad	-0.17409649494378013
46	0x3f99d349c610270a	0.02522006293660354
47	0x3fd0afbc02ce488d	0.2607259776497209
48	0xbfc9db691e4b9bef	-0.20200838069214863
49	0xbfd642e6d6bd02c4	-0.3478333565763416
50	0xbfb333e977dba1a4	-0.07501086403102036
51	0xbfe0531975e41f43	-0.5101439764557444
52	0xbfdaa86ac68814b6	-0.416529363516314
53	0xbfce5d4a39808a5a	-0.23722198302955882
54	0x3ffd3b15a23893e1	1.826924928355986
55	0x3fc57d16d7e4c3dd	0.16787992040329316
56	0x3fcb08bf7aec1cd7	0.21120446683946767
57	0xbfe6329138fd13c8	-0.6936727631624473
58	0x3fee500b67662a57	0.9472710628045417
59	0xbfcb84756d871fac	-0.21497981880224637
60	0xbfec2b97e0621389	-0.8803214437945012
61	0x3febc1a1e4d52485	0.8673867673288816
62	0xbfb4cf3e9327e432	-0.0812872990862992
63	0x3ff017fab2f8441d	1.0058543196685215
64	0xbfe04a4edc2c0440	-0.5090708065255356
65	0xbfbc4fd3742d7941	-0.11059304796569781
66	0x4009801b8aaf0cc3	3.1875525316878295
67	0xc00bfa50b1c5236b	-3.497224224880872
68	0xbfd0cf0a61fc8eb7	-0.2626367527866295
69	0x401e6e6d67d4c647	7.607839224206663
70	0xc02183531f079438	-8.756493539500397
71	0x3fe0331220dc8fb7	0.5062342302157877
72	0x402f196834adfc2c	15.54962315200654
73	0xbfc1d87c8845b189	-0.1394191422836111
74	0x3fddb1c0fad97734	0.46397423264521653
75	0xbfaf8706b79429a6	-0.06157704344703356
76	0xbfd42199882b038f	-0.31455076501520635
77	0xbfe0f3b218ed9d76	-0.529748009384021
78	0x3fe940db22d4d304	0.789166992216082
79	0xbfef7a7d4523977d	-0.9837023115512548
80	0x3fdf16799955f208	0.4857467648905929
81	0xbfb5c9d7167dd332	-0.08511108683690052
82	0xbfe22c4b545ce2d3	-0.5679070136748926
83	0x3fe3986052d9ffd6	0.6123506181902438
84	0xbfc1731de8d57894	-0.13632558697549213
85	0xbfb6f56eb342174e	-0.08968250156803245
86	0xbfa1417f7e15190f	-0.033702835217399245
87	0x3fc52e9b20c57ca8	0.1654848012940182
88	0xbfcdaa6f3708d601	-0.23176374613983344
89	0x3fc47a455a29fadd	0.15998141195810592
90	0x3fd36083b8b962b2	0.30276577987164466
91	0x3fd6d379829c18f8	0.3566573882566355
92	0xbfcd7da13359559d	-0.2303964138724667
93	0x3fc13f2d45e41b07	0.13474050438545523
94	0xbfdaf0c15eb93791	-0.42094454050390434
95	0xbf94fdeaa491929a	-0.020499864859078266
96	0x3fd7e65769b69695	0.3734339268070042
97	0x3fb38bf751ba5b2b	0.07635446305571907
98	0xbfd650eae49f5442	-0.3486888153686928
99	0xbfc0a7e4a0ac514d	-0.1301236900841424
